Voice Recognition/voice_recongition.tflite (tflite, 11432 bytes, 6 tensors)

dense_2/bias f4 [2]
00000000: a712 07c0 a612 0740
-2.1105134 2.1105132

dense_1/bias f4 [16]
00000000: ef0a 1cbe 10aa 3abd b026 c4bd 3feb e7be
00000010: 74b7 943d 73f4 9fbd 82d5 22be 29f8 2ebe
00000020: 74a3 25bd 9806 c0bd 2c91 80be 905a 29be
00000030: c871 b4bd 5c79 dfbd c731 92bb 97e2 45be
-0.15238546 -0.04557234 -0.095776916 -0.45296666 0.072615534 -0.07810297 -0.1590176 -0.17086853
-0.040439084 -0.09376258 -0.25110757 -0.16538453 -0.088107646 -0.10911819 -0.0044615003 -0.19324718

dense/bias f4 [48]
00000000: 9ff2 acbd 0000 0000 0000 0000 1a95 91bd
00000010: 633f 1cbd 1a7f 9cba b94c 7fbd 42f4 f3bc
00000020: 83ba a6bd 0000 0000 8355 c7bd 0000 0000
00000030: cd0a dbbd 92a1 1abe 0000 0000 98a6 a5bd
00000040: 0000 0000 0000 0000 c8d2 5ebc 0000 0000
00000050: 875e 03bc 28bc fdbc 0000 0000 44cf c5bd
00000060: 0000 0000 814b 7ebb 4c57 cc3d b8fc 003c
00000070: 3f48 94bd 0000 0000 0e15 01bb 2acf 16bc
00000080: b31f 13bc 0000 0000 0000 0000 0000 0000
00000090: 48a6 1fbc 71b7 adbb 4388 f9bb ffff bcbc
000000a0: 9386 83bd 1103 5abd d7c2 c63b 26b9 95bd
000000b0: e91e 99bd 0000 0000 0000 0000 0000 0000
-0.08444714 0.0 0.0 -0.07108517 -0.038146388 -0.0011939735 -0.062329028 -0.029779557
-0.08141043 0.0 -0.09733107 0.0 -0.106954195 -0.15100697 0.0 -0.08088416
0.0 0.0 -0.013600059 0.0 -0.008018143 -0.030973509 0.0 -0.096586734
0.0 -0.0038802328 0.09977588 0.007872753 -0.07240342 0.0 -0.0019696387 -0.009204665
-0.008979726 0.0 0.0 0.0 -0.009744234 -0.005301409 -0.0076151206 -0.023071287
-0.06422152 -0.05322558 0.006065707 -0.07310705 -0.07476599 0.0 0.0 0.0

sequential/dense/MatMul f4 [48, 32]
00000000: 9d5d 113c 504a 223d dd42 143e 1645 65bc
00000010: 7c39 a2be 30a4 89b9 52ef 393e fb94 d43d
00000020: d8de 9bbe aa1b 413e 4279 553d b2d4 b73d
00000030: a961 e03d f612 51bd e7d5 e13d 6834 1bbe
00000040: 8cb7 c33c a06f 5dbe e4b3 96be bbeb 713d
00000050: d29d 2ebd ea28 2dbe 8df4 593d 703e afbc
00000060: afe7 8abe f024 96be 85a6 2f3e cdf1 a9be
00000070: 0332 05be 445d 92bd 5f6a 013b 22a5 a4be
00000080: 8059 04bd 664e c9bd ee0d 63be d899 053d
00000090: ecf3 4cbe cc85 b23d 38b8 91bd 242d 36bd
000000a0: b01d a7bd 18a3 a63d e01f 933c fcc5 41be
000000b0: e2bd 4cbe d03d bd3c 0868 133d 60ac 4f3c
000000c0: c2fe 6dbe 30cc f13d d13c 6fbe 3c68 e3bd
000000d0: 70c3 ac3d f45d b2bd 0c9c e13d 4445 4abe
000000e0: ae91 603e bafe 54be 6cce 51bd 2a60 89be
000000f0: 082f 1ebe 5c71 43be 15a7 86be b80f cd3d
00000100: e806 a5bd 20ed 703d 5b19 68be 08ef 02be
00000110: 76e3 6fbe 0e57 6bbe 8a92 083e 8270 edbd
00000120: 8ee9 b2bd 2460 81be 0e57 213e 6486 a53d
00000130: c42f b7bd b499 ef3d ce03 bcbd 7685 e8bd
00000140: 8a6f 03be d05c 8abc f52a 1ebe ae34 353e
00000150: 6410 e3bd 480a 033d affb 10be b01a 193d
00000160: c801 a03d 1e8d ffbd 98ee 90bd c080 563c
00000170: c031 a03c 2864 a93d 961b c2bd 20b8 273d
00000180: 9552 c9bd 0a9c cebd f1d6 7abc 58e2 ec3d
00000190: 776e c1bd c858 a33d b1dc 87bc 9abd 1a3e
000001a0: 4c51 46be 806c 78bd 615d 3e3e b1f1 983d
000001b0: 329e 47be 84d4 26be 3757 113e 2ff0 8bbe
000001c0: 6d8b 17bd 1119 033e 8371 80bd 2ba9 6d3e
000001d0: 7f61 23bd 6363 26be bec1 54be c243 2f3e
000001e0: 7c58 a6bd bc14 63be 90ce e7bd e622 16be
000001f0: 7844 13bd b3d5 74be f9c6 5d3e 858e 99be
00000200: 076d 9dbe 16cc 483e 4d90 0bbe b19c 343e
00000210: cd50 95be 2cfe 14bd a6ba 453e c8b5 753c
00000220: be89 1f3e e745 c2bd 3de0 44be 1e50 ce3d
00000230: 950b 1cbe 1672 833c ba99 cd3d e85d 0f3e
00000240: c6c7 c3bd edd4 2cbd bbd9 823e 40fb 23be
00000250: 0511 c9bd ad44 04be ff19 aa3d 663a 52bd
00000260: 51d1 1d3e a181 863e 7e03 4dbe 276f a13d
00000270: 95e9 813d 2edf 2bbe 1585 82bd ca19 b0bc
00000280: bf0e 8c3d 830b 7a3d 3620 81bd ae5a 2d3e
00000290: 1935 bc3d 610e 36be a419 aebc 3f84 1c3e
000002a0: cf69 9cbe fe9e f63d b287 0c3e c75a 1bbe
000002b0: 1713 023d a791 6e3e 3a90 06bd f174 9cbe
000002c0: 83e5 0fbe 0c81 043d d061 a93e 1008 773d
000002d0: 10e7 8b3e 7c11 edbc 41d1 18be 5c82 71bd
000002e0: 4765 ddbd fcfd 3f3e a94d a9bd 7c02 2c3e
000002f0: 5511 853e 9694 e83d a4d7 693d 4894 903e
00000300: b3e6 923d 8dd0 11be 9113 1c3d 5436 143e
00000310: f2d7 de3c f933 80bd 9a79 99bd 562f 89bd
00000320: d5ea 93bd a908 2c3e b132 82be 3905 f13d
00000330: 14b0 f9bd 4768 84bc f3a6 423e bc91 f1bd
00000340: 1072 e53d 3786 93be a8dc 3a3d 9d15 443e
00000350: a609 c2bc 6320 423e b8f9 7a3e e34e 013e
00000360: f5fa 57bd c816 d83d a086 56bd 32d6 a3bd
00000370: 4598 ccbd dc1f 8bbe 9c8a 213e a81d 2b3e
00000380: da88 1b3e 9cd7 e13d 17c1 bf3d be41 9cbe
00000390: b1dd 69bd a572 ea3d 7564 e23d b36d 0abd
000003a0: 548e 333d eb4a 8cbe b4b1 813e 5c7a 2d3e
000003b0: e673 3cbe 0f48 44be f0aa 343c 98cd fbbd
000003c0: 8af9 933c ce39 063e 1dc5 0a3e f6dd a93e
000003d0: c95e 543e e975 733e 38b8 ff3d 99f1 563e
000003e0: 97d1 7b3d 6cf0 7dbd a1bf b43d 0b10 51be
000003f0: af6d 0fbe b42e 18be 8c88 99bd f357 69be
0.008872417 0.03962165 0.14478631 -0.013993522 -0.31684482 -0.00026253005 0.181577 0.10379978
-0.30443454 0.18858209 0.052117594 0.08976115 0.10956127 -0.051043473 0.11027127 -0.1515671
0.023891233 -0.21624613 -0.2943412 0.0590627 -0.042630978 -0.16910139 0.053211737 -0.021392077
-0.27129886 -0.29325056 0.17153366 -0.33192292 -0.13007359 -0.07146695 0.001974724 -0.32157236
-0.032311916 -0.098294064 -0.22173283 0.03261742 -0.20014924 0.08716926 -0.07115215 -0.044476643
-0.08159959 0.081365764 0.017959535 -0.18923181 -0.1999431 0.023100764 0.035987884 0.012675375
-0.23241714 0.11806524 -0.23363043 -0.111038655 0.08435714 -0.087093264 0.11016092 -0.19752985
0.21930572 -0.20800295 -0.05122225 -0.2683118 -0.15447628 -0.19086212 -0.26299348 0.10012764
-0.08057958 0.05881989 -0.22665922 -0.12786496 -0.23426613 -0.22982427 0.1333715 -0.11593725
-0.08735953 -0.25268662 0.15755865 0.080822736 -0.089446574 0.116992384 -0.09180413 -0.11353581
-0.12835518 -0.01688996 -0.15446074 0.17695877 -0.11087111 0.031992227 -0.1415851 0.037378967
0.0781284 -0.12478088 -0.07076758 0.01309222 0.019554973 0.082710564 -0.09477918 0.04094708
-0.098302044 -0.10088356 -0.015310035 0.11566609 -0.094448976 0.07975918 -0.016584726 0.1511139
-0.1936695 -0.06065035 0.18590309 0.07467974 -0.1949394 -0.16292006 0.14193426 -0.27331683
-0.0369982 0.12802531 -0.06271651 0.23209064 -0.0398879 -0.1624885 -0.20777032 0.17115691
-0.08122346 -0.22175878 -0.113186955 -0.1466175 -0.03595397 -0.23909645 0.21657933 -0.29991546
-0.30747244 0.19609103 -0.13629265 0.17637898 -0.2916321 -0.03637521 0.19309482 0.014996953
0.15579888 -0.09485989 -0.19226165 0.10073875 -0.15238793 0.016045611 0.10039087 0.14000666
-0.09559588 -0.04219525 0.2555674 -0.16013813 -0.09817699 -0.12916823 0.083057396 -0.051325224
0.15411879 0.26270774 -0.20020863 0.07882529 0.0634338 -0.16784355 -0.0637304 -0.021496672
0.0683875 0.061046135 -0.06304972 0.16929123 0.09189815 -0.17778923 -0.02125246 0.15284823
-0.30549476 0.12042044 0.13723639 -0.15171348 0.031756487 0.2329775 -0.03285239 -0.3055797
-0.14052396 0.03234963 0.33082438 0.060310423 0.27324724 -0.028939001 -0.14923574 -0.05896221
-0.10810333 0.18749231 -0.082667656 0.16797823 0.25989786 0.113564655 0.057090417 0.2823813
0.07172909 -0.14239712 0.038104597 0.1447385 0.02720258 -0.06259913 -0.07493897 -0.06698482
-0.07222525 0.16800179 -0.254293 0.11768574 -0.12191787 -0.016163005 0.19008999 -0.11795375
0.11203396 -0.28813335 0.04562059 0.1914887 -0.023686241 0.18957667 0.24509323 0.12627749
-0.052729566 0.1055122 -0.052374482 -0.07999839 -0.099899806 -0.27172744 0.15775532 0.16710532
0.15188923 0.11027452 0.09363001 -0.30518907 -0.057096187 0.11447648 0.11054317 -0.033796024
0.043836907 -0.27400908 0.2533089 0.16941208 -0.18403587 -0.19168113 0.011027083 -0.12295073
0.018063325 0.13107988 0.13551755 0.33177155 0.20739283 0.23775448 0.12486309 0.209906
0.061479177 -0.061996862 0.08825613 -0.20416276 -0.14006685 -0.14861566 -0.074967474 -0.22787456

sequential/dense_1/MatMul f4 [16, 48]
00000000: e3a8 ff3d e211 c9bd 7836 3c3d c995 a3bd
00000010: 9106 853e 28ca a0be d04d 4b3e a90b ebbe
00000020: ace3 f43d 90b5 8c3c d8a4 a73d cdc5 4cbe
00000030: 1449 d03d dd7c 29bd 6d3b 903e 8073 b6be
00000040: fc3b e0bd 71ad 8b3e 89e9 8ebe 1821 8dbd
00000050: 0e88 de3d 3d98 403d 6e0d f9bd 86ae acbd
00000060: bc18 8b3d fe5d 593e daf5 273e 5d9c 20be
00000070: ab87 abbe 4882 a1bd e6ca 99bd 982b 413d
00000080: e3ae 39bd 06a5 56be 20fd a13c 2c64 113e
00000090: c214 6f3e b05e fbbc 1c22 ee3d fe6c 813d
000000a0: e19d 7abe a8e6 253e a026 91bd 31d0 3dbe
000000b0: 659d 2f3d 983c 8fbd 8ccd a73d bae7 1a3e
000000c0: e2b7 1fbd 9e90 4cbe e8ca e83d 6dca 463e
000000d0: 386f 643e 7b5c 393e 27dd d73d c024 093e
000000e0: b9fc f83d 6608 3abe b600 0bbe c2b2 6c3e
000000f0: f3dd 2fbe 54c8 0e3e 71d4 8f3e 811c b8bd
00000100: c495 393e 4605 5a3e b1cb 9a3d bcb9 b8bd
00000110: 74cb a3bd 149f 0fbe 2c65 51be 8591 75be
00000120: c840 163e e814 a13d 7201 e1bb 988a b5bd
00000130: e693 a6be 0cd0 6abe be36 cebd a5be 373e
00000140: e147 113e ca74 88bd 5ed4 433e 029a 363e
00000150: 0474 20be eb98 683d 9d14 153e 0e39 d5bd
00000160: 56a2 1dbd 0ae9 05bf c2f9 92be f754 ecbd
00000170: 7ab3 98be 0f82 873e 7b0a 8b3e d173 923e
00000180: 36d9 833e e0d9 11bd 0cde 223e a857 48be
00000190: 9e0c 143e bfc4 4e3e c03f 79be e89c 12be
000001a0: 3a28 7a3e 6b9e 09be b760 6d3e dc2e 49be
000001b0: 280d a33c e4d3 34be 6039 b9bd ed0e b8bc
000001c0: 1640 08be fee9 303e 51db 27be 3ed3 babd
000001d0: 5a0d 65be 4b33 3ebe 203b 57bd 21eb 883e
000001e0: 1486 c1bd d967 80be d990 e5bd 9637 95be
000001f0: 4a80 023e 206b 263d 3759 413e a79e 8a3e
00000200: f210 56bb 3cc0 a8bd 041e a63d 7a5d 45be
00000210: 49d4 dd3d 993a 813e ab8f 6dbe b84c e2bd
00000220: 1da4 54be 4ac4 7c3e 0f3a 8bbd c1e3 7f3e
00000230: 7e46 97be 766c 6f3e 18e2 1f3e 60ae e33c
00000240: 7032 a33c 8658 7b3e d737 803e 2615 93bd
00000250: 4ff9 b23d c297 e0bd e934 c13e 4818 4d3d
00000260: 0c28 f03e 707e e93d c54e 993e d74d 8d3e
00000270: a72e 5d3f 6db5 d83e c898 1d3e 4c5d 5ebb
00000280: 34e7 8abd 6005 70bd 353c 20be 3237 543e
00000290: f841 14bd 31ad 413d 9eaf d5bd 5802 fe3d
000002a0: 8c1a dd3d 9438 68bd d7bb d6bd 5df5 acbb
000002b0: b6e7 43be a97f 14be c967 91bd 0031 003e
000002c0: 6974 bbbc 398b 893e fc43 82be 1484 e73d
000002d0: 2b83 a8bd 6684 75be 05ca 523d 5b68 ed3d
000002e0: 4ad6 4e3c 0c67 443d 9fa8 0ebd ba66 e03e
000002f0: b0b8 053f b218 523e ac3b c4bd 56ef 84bd
00000300: 7edb de3d 92f9 62be 703f 64bd 4fad edbd
00000310: 9b85 cb3c e45e 823e 53d2 cabc cd98 79be
00000320: c45a 62be 8e42 4f3e 789e 4abe 64bc 0b3e
00000330: c097 dabe d1cc 0fbe 2492 ae3d 8527 653e
00000340: d05f 9abe 6eb4 7d3e 7072 483b 8007 0abe
00000350: 6161 4cbe b534 16be d8b9 023d 68b6 f13d
00000360: 627d eebd 7e77 6abd b633 883c bb41 c0bd
00000370: d117 96bd b044 193d 8b67 2e3d 4e7c 693e
00000380: 76c8 9dbe 0085 e2ba 4a8c 53be 9b82 8e3e
00000390: 986b 7d3d d5e0 893e 3a5f adbd ba5a ef3d
000003a0: e274 823e 066b 80bd 7cdf 85be ff7d 8ebe
000003b0: c973 c63d 0a89 633e 90d0 abbc 35a8 8cbe
000003c0: dcbf 4d3e 66eb 6cbe ee19 6c3e d8e7 cd3d
000003d0: 8783 593e 762a cd3d 611c efbd 58e7 0bbd
000003e0: 325a 7a3e 2915 4dbe 3ea2 d3bc f8d6 723d
000003f0: bdf4 f4bd 9512 34be e0c1 413c fdb9 453e
0.124833845 -0.09817864 0.045950383 -0.079875536 0.25981572 -0.31404233 0.19853902 -0.45907333
0.119574875 0.01717642 0.08185738 -0.1999733 0.101701885 -0.041378845 0.28170338 -0.35634995
-0.10948941 0.27280763 -0.27912548 -0.06891078 0.10865794 0.047020186 -0.12160765 -0.08431725
0.06791827 0.21227261 0.16402379 -0.15684648 -0.33501944 -0.07886177 -0.07509403 0.047160715
-0.0453328 -0.20961389 0.01977402 0.14198369 0.23347762 -0.030684799 0.116275996 0.06319617
-0.24474289 0.1620127 -0.07087445 -0.1853645 0.042874712 -0.06993979 0.08193502 0.15127459
-0.038993724 -0.19977042 0.11366826 0.19413157 0.22308052 0.18101685 0.10540228 0.13392925
0.12157578 -0.18167266 -0.1357449 0.23115066 -0.1717451 0.13943607 0.28091767 -0.08989812
0.18123537 0.21291074 0.07558382 -0.09019801 -0.0799779 -0.14025527 -0.2044875 -0.23981293
0.1467315 0.07865316 -0.0068666274 -0.08864325 -0.32534713 -0.22930926 -0.10069035 0.17943819
0.14187576 -0.06662901 0.1912398 0.17832187 -0.15669256 0.05678646 0.14558645 -0.10411273
-0.038484894 -0.52308714 -0.28706175 -0.11539643 -0.2982443 0.26466414 0.27156433 0.28603986
0.25751656 -0.035608172 0.15905017 -0.19564688 0.14457938 0.2019224 -0.24340725 -0.14317667
0.24429408 -0.13439338 0.23181425 -0.19646782 0.019903734 -0.17658955 -0.090441465 -0.022468055
-0.13305697 0.17276761 -0.16392256 -0.091223225 -0.22368374 -0.18574254 -0.05254662 0.2674189
-0.094494015 -0.2507923 -0.11209268 -0.2914397 0.12744251 0.040629506 0.18881689 0.27074167
-0.0032663909 -0.08239791 0.08111194 -0.1927394 0.10831506 0.2524002 -0.23199336 -0.11049789
-0.20765729 0.24684253 -0.06798183 0.24989225 -0.2954597 0.23381218 0.15613592 0.02779311
0.019921511 0.24545488 0.25042602 -0.07181768 0.08738958 -0.109664455 0.3773568 0.050071985
0.46905553 0.11401069 0.2994291 0.2759845 0.8639931 0.42325917 0.15390313 -0.003393012
-0.0678238 -0.058598876 -0.15647967 0.2072418 -0.036195725 0.04728431 -0.10433887 0.12402791
0.10796079 -0.056694582 -0.10485046 -0.005278273 -0.1913136 -0.14501823 -0.070998736 0.12518692
-0.022882657 0.2686403 -0.25442493 0.11304489 -0.08228143 -0.23976287 0.051462192 0.1159217
0.012624333 0.047949836 -0.03482878 0.43828374 0.52234936 0.20517233 -0.09581694 -0.06490962
0.108817086 -0.22165516 -0.05572456 -0.116053216 0.024843981 0.2546302 -0.024758494 -0.24374695
-0.22104937 0.20240232 -0.19787014 0.13646084 -0.426939 -0.14042975 0.08523968 0.22378357
-0.30151224 0.2477586 0.0030585788 -0.13479424 -0.19959022 -0.14668544 0.031915516 0.11802369
-0.116450086 -0.057242863 0.01662622 -0.09387537 -0.07328761 0.03741902 0.042579215 0.22801325
-0.30817002 -0.0017282069 -0.20658985 0.2783402 0.061870188 0.26929346 -0.08465429 0.116872266
0.254798 -0.06270413 -0.26147068 -0.27830502 0.09690053 0.22220245 -0.020973474 -0.27472082
0.2009272 -0.23136672 0.23056766 0.10053986 0.2124158 0.100178644 -0.11675335 -0.034156173
0.2444847 -0.20027603 -0.025834199 0.05928704 -0.119607426 -0.17585213 0.011826009 0.1930923

sequential/dense_2/MatMul f4 [2, 16]
00000000: 33c8 873e 488d debe 7398 743c 01cb fdbe
00000010: 2fda 7fbe 6067 4a3e 2c98 de3e f158 2b3e
00000020: ef9a e13e 5bbb 98be d03b f6bb dbe2 c63e
00000030: adc9 11bc 494f 8f3e e54c 9cbe 6a20 82be
00000040: 91d3 253e d881 9bbe 0641 13be 47bf 0cbf
00000050: bc0e f0bc 100e efbe ac44 8bbe a323 8b3c
00000060: bcd6 f03e 23ed 873e 425c 11be 6a0b edbe
00000070: b0ac bd3e 4f21 d0be 933b 9bbe d324 9bbe
0.26519927 -0.43467164 0.014928925 -0.49568942 -0.24985574 0.19765997 0.43475473 0.16733147
0.44063517 -0.2983044 -0.0075144544 0.38844952 -0.008898181 0.27990177 -0.30527416 -0.25415355
0.16193987 -0.303725 -0.14380273 -0.54979366 -0.0293039 -0.46690416 -0.2720083 0.016984766
0.4703883 0.26548108 -0.1419535 -0.4629777 0.37045813 -0.40650412 -0.3031889 -0.30301532
